weights/lenet.pt (torch, 249711 bytes, 10 tensors)

weight f4 [6, 1, 5, 5]
0.352503 0.41890746 0.2582023 -0.08400077 -0.15340932 0.43782744 0.119947866 0.40339628
0.04794451 0.055064864 0.14328249 0.28911012 0.099422194 0.20622738 0.16341564 0.2198109
0.2911792 0.20582429 0.080064565 -0.10854689 0.23666084 0.14493655 -0.11113629 -0.11799911
-0.081038244 0.16436467 0.11667497 -0.10866683 0.00795305 0.037710898 0.08615979 0.20270136
0.04274481 -0.04646539 -0.21685533 0.22417246 0.16574113 -0.20023772 -0.21430446 0.060472503
0.01677046 -0.092245065 -0.017473916 -0.15770774 -0.15462208 0.11172984 0.2370986 0.115702614
0.11491769 -0.14437322 -0.15219411 -0.06463271 -0.048562706 -0.17585027 -0.041993696 0.10564112
0.18454053 0.15892275 0.046714265 -0.14715016 -0.17503588 0.029680507 0.03608051 -0.015595321
-0.06616417 -0.05261557 -0.052531976 0.16155958 0.045353353 0.0020126484 0.13566256 -0.018277157
-0.12729429 -0.08198296 0.17426379 -0.064116105 -0.14634864 -0.021692885 -0.06517761 0.038106907
0.076888844 0.0839836 0.14029263 0.019665467 -0.065832786 0.014048977 0.07050079 0.17155196
-0.052448608 0.008549341 -0.16974555 -0.010851388 0.08394031 -0.0894395 -0.11655912 -0.06649892
-0.124542706 0.106295004 0.007277333 -0.09483645 0.18237972 0.24984288 0.07058739 -0.13931985
-0.07479731 0.09307999 0.17986274 -0.11941387 -0.06801708 0.023267478 0.24146257 0.13422789
-0.04031375 0.03222113 -0.14064144 0.19869031 0.19793433 0.16826238 0.205873 -0.19372104
0.2217903 -0.11756296 0.08859508 0.17573388 -0.08366863 0.17436473 0.02038852 0.11009737
0.17065099 0.092242844 0.019881854 0.29595113 0.35495856 0.29614186 0.29584926 0.26198354
0.2665054 0.3781836 0.36940378 0.20853925 0.008984721 0.21081103 0.2952698 0.08008514
0.1947868 0.20125073 -0.084148996 0.20703551 -0.090565145 -0.07185525
00000000: 467b b43e 0a7b d63e 1833 843e 9808 acbd
00000010: 5517 1dbe eb2a e03e 3aa7 f53d f589 ce3e
00000020: 7661 443d b28b 613d a5b8 123e 3e06 943e
00000030: dd9d cb3d 452d 533e 6e56 273e 1c16 613e
00000040: 7115 953e 9ac3 523e e4f8 a33d d54d debd
00000050: 3857 723e 3f6a 143e 6c9b e3bd 84a9 f1bd
00000060: 61f7 a5bd 364f 283e 49f3 ee3d b78c debd
00000070: 824d 023c be76 1a3d 8b74 b03d f290 4f3e
00000080: 2f15 2f3d 7e52 3ebd 530f 5ebe 778d 653e
00000090: 0bb8 293e 1e0b 4dbe a172 5bbe 04b2 773d
000000a0: 3462 893c fbea bcbd 7525 8fbc 237e 21be
000000b0: 4055 1ebe 9dd2 e43d fac9 723e 7ef5 ec3d
000000c0: f759 eb3d 93d6 13be c6d8 1bbe 275e 84bd
000000d0: b0e9 46bd 1812 34be 9501 2cbd 5f5a d83d
000000e0: 31f8 3c3e a5bc 223e 7557 3f3d 88ae 16be
000000f0: 9b3c 33be 8924 f33c 28c9 133d 8483 7fbc
00000100: 1581 87bd 6d83 57bd c52b 57bd e06f 253e
00000110: 70c4 393d a3e6 033b 20eb 0a3e fab9 95bc
00000120: 6f59 02be afe6 a7bd 3572 323e 4e4f 83bd
00000130: 6bdc 15be 47b5 b1bc d77b 85bd fd15 1c3d
00000140: e677 9d3d 98ff ab3d dfa8 0f3e 7919 a13c
00000150: 57d3 86bd ae2d 663c b862 903d 51ab 2f3e
00000160: 5ad4 56bd 8912 0c3c c7d1 2dbe 05ca 31bc
00000170: e6e8 ab3d 0e2c b7bd 8cb6 eebd 9630 88bd
00000180: 3f10 ffbd 32b1 d93d b276 ee3b 9d39 c2bd
00000190: c0c1 3a3e d0d6 7f3e 1f90 903d dda9 0ebe
000001a0: 552f 99bd b9a0 be3d f02d 383e 428f f4bd
000001b0: 8a4c 8bbd 709b be3c f741 773e 0973 093e
000001c0: 0820 25bd 4efa 033d 4f04 10be 7975 4b3e
000001d0: 4caf 4a3e f94c 2c3e 5fd0 523e cf5e 46be
000001e0: ff1c 633e d9c4 f0bd 5671 b53d 95f3 333e
000001f0: 755a abbd ab8c 323e d305 a73c bb7a e13d
00000200: 22bf 2e3e d1e9 bc3d 45df a23c e886 973e
00000210: 21bd b53e e89f 973e 8e79 973e b522 863e
00000220: 6573 883e 48a1 c13e 7e22 bd3e 508b 553e
00000230: a734 133c d9de 573e 9a2d 973e ae03 a43d
00000240: 3176 473e ac14 4e3e 4f56 acbd 1e01 543e
00000250: 387a b9bd d828 93bd

bias f4 [6]
-0.013296672 -0.049334694 0.1428065 0.26224613 -0.16355568 -0.20427437
00000000: 49da 59bc 2d13 4abd de3b 123e 2045 863e
00000010: 247b 27be 4d2d 51be

weight f4 [16, 6, 5, 5]
-0.018401565 -0.082677126 -0.11933928 -0.08477001 -0.100919425 -0.03172299 0.040537816 0.070391275
0.002438491 0.03416961 0.05319308 -0.00081974175 0.020844601 -0.04224284 0.0055783624 0.11729736
0.042864256 0.017800495 0.11205043 0.033042066 0.014760989 0.08039114 0.09746808 0.07714819
0.027897684 0.12047474 0.019415498 0.018051526 0.012893506 -0.13368313 0.034801695 -0.00041768074
0.0744818 0.058447268 0.010443958 -0.07657385 -0.07226539 0.10854109 0.1001507 -0.1500001
-0.1861275 0.0010741556 -0.10283609 0.084687434 -0.039831124 -0.022016335 -0.06877719 0.06423672
-0.009572502 -0.006462521 0.024671808 0.02105438 0.05742326 0.048735116 0.05518397 0.18490864
0.090176255 0.22566123 0.20116004 0.04863557 0.10445469 0.123339735 0.21777914 0.23298824
0.10116369 0.07476109 -0.09638281 0.019877454 0.017444566 0.08917106 -0.07723237 -0.008606997
0.041598 -0.092676215 -0.066683404 0.024812253 0.05926265 0.14172517 0.08548534 0.050870787
-0.009326168 0.07395529 0.13081901 0.077273235 -0.043229394 0.020804202 -0.066423655 0.08972245
0.084465034 0.055255033 0.12305885 0.122470975 0.1462262 0.00944212 0.08962871 0.032093283
0.12077953 0.11998357 0.016881332 0.024158293 0.01943245 -0.025547927 -0.08447777 -0.03749421
-0.047640413 -0.0762331 -0.007066812 -0.07037135 -0.04217663 -0.09163959 -0.024437115 0.11100883
0.10366232 0.072531186 -0.0028195763 -0.01833301 -0.01758913 0.04903741 0.09221573 -0.046777815
0.04734921 -0.022226328 -0.025411248 0.07733158 -0.022130964 -0.099873975 -0.13324013 -0.008148081
-0.14541364 -0.09702217 -0.08926916 -0.046237007 -0.030030739 -0.01192063 -0.10539703 0.10339602
-0.022874642 0.026405904 0.06924045 0.037209403 0.053371955 -0.02256637 0.069173865 0.004277523
0.108883664 0.09320235 0.0020704032 -0.005150964 -0.024335051 0.058020163 0.066355065 0.10604813
0.07937927 -0.011915965 0.061749958 0.031170642 0.049584158 0.074400395 -0.06970839 0.052560274
0.0062459665 -0.071487136 -0.044697322 -0.07110366 -0.107587 -0.0027673412 0.07003972 -0.07950203
-0.09550417 -0.029704288 0.08987146 0.058605514 -0.037318632 0.06978733 0.040329665 0.055712305
0.06361969 0.06879051 -0.08704559 -0.150915 0.18364634 0.050017606 0.12557793 0.054399643
-0.18971382 0.10614771 0.14117622 -0.0036593368 -0.06646025 -0.23527302 0.17695343 0.23768903
0.112754844 -0.15589722 -0.26311457 -0.015697492 0.20982721 0.07228431 -0.07707826 -0.045365192
0.040068228 0.013618537 -0.064560965 -0.0014285858 -0.035358217 0.014921501 0.07980938 0.0026811815
0.091348805 0.09945563 0.09611613 0.049669575 0.12183774 0.18226108 0.08571686 0.16109817
0.109263584 0.14208603 0.1774333 0.17018872 0.22928257 0.21969132 0.038083643 0.08363237
0.09660333 0.15275432 0.13592046 0.19557677 0.10446137 0.1107618 0.103928104 0.13859728
0.11868695 0.17266178 0.033339344 0.1358034 0.17834044 0.055572487 0.03471168 0.07603753
0.1630754 0.11079619 0.10110942 0.008737911 0.103617914 0.0976689 0.10988017 -0.053533904
-0.006501718 0.18110666 0.05548996 -0.005468 -0.010584856 -0.08333105 0.07251851 0.047421623
00000000: e1be 96bc a052 a9bd 2768 f4bd e69b adbd
00000010: d8ae cebd f7ef 01bd fb0a 263d 4d29 903d
00000020: 17cf 1f3b 6ff5 0b3d fde0 593d f0e3 56ba
00000030: 4cc2 aa3c d406 2dbd b2ca b63b 9939 f03d
00000040: 6e92 2f3d 58d2 913c b27a e53d 1e57 073d
00000050: 13d8 713c 1ca4 a43d 589d c73d dfff 9d3d
00000060: af89 e43c 76bb f63d 400d 9f3c cbe0 933c
00000070: 493f 533c 3be4 08be 398c 0e3d 29fc dab9
00000080: ea89 983d 6766 6f3d 231d 2b3c c0d2 9cbd
00000090: e0ff 93bd ca4a de3d cf1b cd3d a099 19be
000000a0: 3598 3ebe aeca 8c3a ba9b d2bd 9b70 ad3d
000000b0: f625 23bd 9a5b b4bc 0edb 8cbd 8b8e 833d
000000c0: fcd5 1cbc 8ec3 d3bb 881c ca3c 3c7a ac3c
000000d0: a734 6b3d 799e 473d 9608 623d b158 3d3e
000000e0: 54ae b83d bd13 673e e6fc 4d3e 1736 473d
000000f0: 57ec d53d 8b99 fc3d 7f01 5f3e 7894 6e3e
00000100: e92e cf3d 581c 993d 5a64 c5bd 0bd6 a23c
00000110: e8e7 8e3c 519f b63d 012c 9ebd 5d04 0dbc
00000120: aa62 2a3d 07cd bdbd 4f91 88bd 1143 cb3c
00000130: 64bd 723d 6720 113e f012 af3d e35d 503d
00000140: c9cc 18bc df75 973d 6bf5 053e 6e41 9e3d
00000150: 4e11 31bd 936d aa3c 2009 88bd 67c0 b73d
00000160: 01fc ac3d 1a53 623d 4706 fc3d 10d2 fa3d
00000170: 52bc 153e 1fb3 1a3c 428f b73d 3f74 033d
00000180: 425b f73d f2b9 f53d b84a 8a3c 9de7 c53c
00000190: cd30 9f3c e349 d1bc ae02 adbd 8793 19bd
000001a0: 9822 43bd 1920 9cbd b790 e7bb db1e 90bd
000001b0: 67c1 2cbd 8aad bbbd 5830 c8bc 9958 e33d
000001c0: e94c d43d 3b8b 943d a4c8 38bb 1c2f 96bc
000001d0: 1417 90bc 74db 483d 9adb bc3d 189a 3fbd
000001e0: 3ff1 413d fd13 b6bc 402b d0bc 0560 9e3d
000001f0: ff4b b5bc ba8a ccbd 1a70 08be 877f 05bc
00000200: 50e7 14be 8fb3 c6bd c0d2 b6bd 0463 3dbd
00000210: 0603 f6bc bf4e 43bc 66da d7bd 4bc1 d33d
00000220: 9a63 bbbc 3251 d83c f0cd 8d3d e368 183d
00000230: 8d9c 5a3d 1cdd b8bc 07ab 8d3d 772a 8c3b
00000240: 66fe de3d e0e0 be3d 9aaf 073b 6bc9 a8bb
00000250: 4d5a c7bc 8da6 6d3d 2ae5 873d c32f d93d
00000260: 9991 a23d 2e3b 43bc 86ed 7c3d 9359 ff3c
00000270: c218 4b3d 3c5f 983d 46c3 8ebd 7149 573d
00000280: f7aa cc3b d967 92bd 8a14 37bd cc9e 91bd
00000290: 9356 dcbd 485c 35bb fc70 8f3d f6d1 a2bd
000002a0: b197 c3bd 6856 f3bc 870e b83d 560c 703d
000002b0: 6cdb 18bd a9ec 8e3d b830 253d 9632 643d
000002c0: 0a4b 823d 0ae2 8c3d f544 b2bd 7689 1abe
000002d0: c90d 3c3e 43df 4c3d 8097 003e 29d2 5e3d
000002e0: 5744 42be f863 d93d 8090 103e 7cd1 6fbb
000002f0: 501c 88bd 69eb 70be 4833 353e c164 733e
00000300: 03ec e63d 85a3 1fbe f4b6 86be 0798 80bc
00000310: f2dc 563e cc09 943d 35db 9dbd dad0 39bd
00000320: 951e 243d 4920 5f3c 8a38 84bd 633f bbba
00000330: c7d3 10bd 5079 743c 1a73 a33d c3b6 2f3b
00000340: 1515 bb3d 65af cb3d 89d8 c43d 5372 4b3d
00000350: 1186 f93d a6a2 3a3e 528c af3d ebf6 243e
00000360: 96c5 df3d 007f 113e 13b1 353e f445 2e3e
00000370: 0dc9 6a3e c3f6 603e 98fd 1b3d 7347 ab3d
00000380: f7d7 c53d a16b 1c3e bc2e 0b3e 4745 483e
00000390: d8ef d53d 15d7 e23d 42d8 d43d 72ec 0d3e
000003a0: 2512 f33d 40ce 303e d68e 083d 0c10 0b3e
000003b0: e09e 363e fa9f 633d d62d 0e3d 91b9 9b3d
000003c0: 3dfd 263e 1de9 e23d 7512 cf3d 7429 0f3c
000003d0: a135 d43d a206 c83d db08 e13d 5e46 5bbd
000003e0: 5d0c d5bb 0674 393e 7149 633d e92c b3bb
000003f0: 1b6c 2dbc 78a9 aabd 9684 943d 2d3d 423d

bias f4 [16]
-0.0241004 0.12452076 0.12162329 -0.050309706 -0.07881037 -0.088193774 -0.018860681 -0.021112341
-0.035490636 -0.020954024 -0.04408819 -0.07454288 0.021508005 -0.064494945 -0.0876945 -0.12470416
00000000: 346e c5bc bd04 ff3d a215 f93d 8d11 4ebd
00000010: 5567 a1bd f09e b4bd b781 9abc caf3 acbc
00000020: a15e 11bd c6a7 abbc d195 34bd f0a9 98bd
00000030: 8e31 b03c ed15 84bd 2d99 b3bd e564 ffbd

weight f4 [120, 400]
-0.030150604 -0.026615057 0.034461707 -0.09398835 -0.07563726 -0.07538692 -0.043773703 0.056711197
0.028429488 0.030259361 0.01262521 0.06696211 0.0335576 0.00021764007 0.012229569 -0.024912396
-0.030091967 -0.06266655 -0.07255567 -0.03086155 -0.0009888918 -0.052590072 0.041310824 -0.054129124
-0.01284267 -0.094177954 -0.045817968 -0.09963152 0.021899294 0.02082338 0.00045551994 0.0142735895
-0.06569951 -0.03342176 0.08091134 -0.039383456 0.016329011 -0.054334737 -0.035259344 -0.017432733
0.03341007 0.01806482 -0.024629155 -0.053098164 0.030440439 -0.0671395 0.0086111585 0.012854656
-0.02370238 0.056578472 -0.04434295 -0.047499888 -0.020561505 0.016454365 0.009868668 0.046253182
0.04904732 0.045687016 0.012904998 -0.025856027 0.0021421732 0.009010763 -0.053432796 -0.006256342
-0.041862287 -0.02094491 -0.09056664 0.028572021 0.010581736 -0.0648527 -0.009196437 -0.021718876
-0.051083315 -0.005321121 -0.018381897 -0.03744294 0.04240844 -0.025200529 -0.04197595 0.032047525
-0.034368988 0.037822407 0.017613882 0.025028082 0.03918685 0.021916626 -0.024068225 0.01780564
-0.0035734053 -0.040773336 -0.049159158 0.017255874 -0.019159395 0.03410519 0.025832726 -0.04749122
0.025729544 0.036184784 0.037339464 0.032260362 -0.0005778611 0.0051174345 -0.020308722 0.020961273
-0.018852336 0.018698735 -0.033150263 -0.019918954 0.03214687 0.038478494 0.017835444 0.027909923
-0.0078090313 -0.011437977 0.007055241 0.034995884 -0.028516227 0.04254728 -0.03471005 0.031515
-0.033457376 -0.0035424174 0.029006004 0.03151515 0.045013946 0.059943903 0.034356207 0.02145395
0.033480704 -0.022268103 0.019350082 0.050430354 0.055178765 0.026644534 0.024190314 0.0490649
-0.015581013 0.025634758 -0.007361786 0.033791963 0.0010916775 0.02987748 0.03505897 -0.023581518
-0.0001991808 -0.015030863 -0.0103898775 0.022464387 0.038402356 -0.06477205 0.030165475 -0.013741239
-0.03948437 -0.057974074 0.031702958 0.0065120254 -0.019266488 0.02513193 -0.0814049 0.0015579561
-0.061227866 0.015403306 -0.04255794 -0.0362601 -0.011182033 -0.023057733 0.096227236 0.04430126
0.018459024 -0.0284123 0.013714398 -0.017559012 -0.025427263 -0.014192817 -0.010045028 -0.034023628
0.044769797 0.0031743767 -0.028093567 -0.019546127 0.023359172 -0.014067991 0.03834495 0.042114846
0.026439942 0.017892739 0.007053471 0.056613136 -0.003491465 -0.04131235 -0.007368055 0.04700052
0.07895755 0.014191691 0.0287887 0.007688608 0.01875091 0.03780788 0.014886571 0.006520951
0.010458627 0.014821534 -0.053539053 0.08095954 -0.03675127 -0.00030106 -0.06252807 0.044554166
0.03234643 0.031861525 -0.032162853 0.025801627 -0.0446938 -0.047099292 0.037819237 0.023127003
0.05952372 -0.062421415 -0.028760923 -0.021872306 0.03484026 0.01744566 0.068859026 0.027439937
0.03156109 -0.046615157 -0.13139462 -0.03516946 0.0033407842 0.016531505 -0.05991607 -0.028978065
0.07583907 0.0007950261 0.03424744 -0.002141092 0.04879108 0.034314908 -0.06991939 0.0013259662
-0.044345375 -0.022006115 0.05922363 -0.01883018 0.030193442 0.025551189 -0.026251476 -0.00293846
-0.032085035 -0.10971678 -0.035354298 0.02559111 0.029257141 -0.013766747 -0.044339757 0.026119467
00000000: 66fe f6bc d207 dabc b827 0d3d f77c c0bd
00000010: b5e7 9abd 7564 9abd 0e4c 33bd 004a 683d
00000020: f5e4 e83c 7be2 f73c f8d9 4e3c 6e23 893d
00000030: b273 093d 5036 6439 885e 483c 1515 ccbc
00000040: 6e83 f6bc 5257 80bd 1198 94bd 5cd1 fcbc
00000050: b49d 81ba b068 57bd 8a35 293d 80b6 5dbd
00000060: 106a 52bc 5fe0 c0bd 9fab 3bbd 9c0b ccbd
00000070: 2666 b33c cb95 aa3c dad2 ee39 c6db 693c
00000080: 778d 86bd 41e5 08bd d8b4 a53d 8c50 21bd
00000090: 6bc4 853c 1a8e 5ebd 1a6c 10bd 17cf 8ebc
000000a0: ffd8 083d acfc 933c 15c3 c9bc 767d 59bd
000000b0: 3a5e f93c 6f80 89bd d115 0d3c 569c 523c
000000c0: 7e2b c2bc d4be 673d f4a0 35bd 3e8f 42bd
000000d0: 9a70 a8bc 4ecb 863c 32b0 213c fa73 3d3d
000000e0: d8e5 483d 4f22 3b3d 7c6f 533c 05d0 d3bc
000000f0: b463 0c3b e1a1 133c 59dc 5abd 0002 cdbb
00000100: ca77 2bbd a994 abbc 017b b9bd df0f ea3c
00000110: 055f 2d3c 7ed1 84bd a7ac 16bc c9eb b1bc
00000120: bd3c 51bd cc5c aebb a295 96bc c55d 19bd
00000130: 79b4 2d3d 5771 cebc f9ee 2bbd 4444 033d
00000140: 7fc6 0cbd abeb 1a3d fd4a 903c b107 cd3c
00000150: 6482 203d 7f8a b33c ba2a c5bc 22dd 913c
00000160: cb2f 6abb f101 27bd 1d5b 49bd 315c 8d3c
00000170: 2af4 9cbc e2b1 0b3d 279f d33c 2786 42bd
00000180: c4c6 d23c 7f36 143d 44f1 183d 7123 043d
00000190: 9a7b 17ba 27b0 a73b 7a5e a6bc fab6 ab3c
000001a0: 3770 9abc 172e 993c 92c8 07bd 132d a3bc
000001b0: 70ac 033d a09b 1d3d a31b 923c 5aa3 e43c
000001c0: e7e2 ffbb 5a66 3bbc a72f e73b d857 0f3d
000001d0: dd9a e9bc 0f46 2e3d 202c 0ebd df15 013d
000001e0: 9a0a 09bd e727 68bb 009e ed3c 0816 013d
000001f0: 8b60 383d bd87 753d 18b9 0c3d 32c0 af3c
00000200: 1023 093d 996b b6bc 1084 9e3c 0f90 4e3d
00000210: 2103 623d a345 da3c c42a c63c 47f8 483d
00000220: 8147 7fbc fcff d13c 233b f1bb 7169 0a3d
00000230: 9e16 8f3a 9ec1 f43c ff99 0f3d 072e c1bc
00000240: 30db 50b9 0244 76bc 4e3a 2abc 3c07 b83c
00000250: ca4b 1d3d 35a7 84bd 961d f73c ef22 61bc
00000260: 5dba 21bd 3976 6dbd f6da 013d d462 d53b
00000270: c1d4 9dbc 7ae1 cd3c 9db7 a6bd 5534 cc3a
00000280: 12ca 7abd 265e 7c3c 3c51 2ebd 7885 14bd
00000290: d934 37bc 92e3 bcbc c912 c53d 3d75 353d
000002a0: 6137 973c e9c0 e8bc 5bb2 603c ebd7 8fbc
000002b0: d64c d0bc fd88 68bc e793 24bc 5c5c 0bbd
000002c0: 8960 373d 3409 503b 7b24 e6bc 331f a0bc
000002d0: bc5b bf3c 6e7d 66bc 980f 1d3d 9e80 2c3d
000002e0: 9498 d83c cb93 923c ce20 e73b 2de3 673d
000002f0: 10d1 64bb 2437 29bd ba6f f1bb 9e83 403d
00000300: 7fb4 a13d 4484 683c 48d6 eb3c b8f0 fb3b
00000310: 829b 993c 70dc 1a3d cee6 733c b4ad d53b
00000320: a95a 2b3c 05d6 723c c44b 5bbd 1ece a53d
00000330: 8088 16bd 97d7 9db9 b70e 80bd 6e7e 363d
00000340: b17d 043d 3b81 023d 32bd 03bd ef5d d33c
00000350: d910 37bd 30eb 40bd 58e8 1a3d d774 bd3c
00000360: 25cf 733d 99ad 7fbd 079c ebbc 8d2d b3bc
00000370: a9b4 0e3d 33ea 8e3c f605 8d3d b8c9 e03c
00000380: 3446 013d 89ef 3ebd 508c 06be da0d 10bd
00000390: 0ff1 5a3b 146d 873c 8e6a 75bd 6863 edbc
000003a0: 8451 9b3d 4c69 503a 0b47 0c3d 9051 0cbb
000003b0: 28d9 473d ca8d 0c3d e631 8fbd 0bcc ad3a
000003c0: 7fa3 35bd 2b46 b4bc 7a94 723d c041 9abc
000003d0: 3d58 f73c ba50 d13c 560d d7bc 2e93 40bb
000003e0: 996b 03bd 31b3 e0bd abcf 10bd 73a4 d13c
000003f0: acac ef3c ec8d 61bc 9b9d 35bd 7ef8 d53c

bias f4 [120]
-0.057370853 -0.006396581 0.02505758 -0.0024211013 0.0124681005 0.0168522 0.022129368 0.011346947
-0.0331852 0.029317053 -0.0582544 -0.031981435 0.008516226 0.052063823 0.06369428 -0.020348195
0.011207378 -0.0554829 -0.022522567 0.01554358 0.05114813 0.06588524 -0.022746148 -0.037990693
0.087945685 0.0005542316 -0.049569886 0.06254432 0.010348708 -0.04580965 -0.026695805 0.0028397257
0.012344519 -0.006633651 -0.030419204 -0.036871076 -0.05748641 0.07006204 -0.052065957 0.03878807
0.038278535 -0.05585796 -0.026508704 0.054635175 0.04323014 0.024396216 0.024129363 0.041307587
-0.0117525775 0.024296077 0.009257478 0.02726848 0.05655835 0.0047459267 0.004049509 -0.034342814
0.03209658 -0.030703336 -0.012182786 0.0039230892 0.011413362 0.052716266 0.02194926 -0.019349633
-0.018076984 -0.063184515 -0.039977897 0.029578192 0.081530936 -0.05318472 0.060831092 0.026786642
-0.04649856 -0.021924222 0.047896598 0.057298522 0.03016673 -0.010823132 0.007677417 -0.06556746
-0.0058065425 0.03463526 0.026324468 -0.029343907 0.033074617 -0.051449973 -0.069181055 0.04187437
0.023310503 -0.030931408 -0.041273277 -0.03495583 -0.009955264 -0.015987208 -0.041778777 -0.01861963
0.04072864 -0.048411142 0.003453908 -0.03315122 0.068745434 0.015593906 -0.0072459164 -0.019650325
-0.059256427 -0.053458743 0.060658824 -0.01394981 0.02521797 -0.028149186 9.864241e-06 0.026558768
-0.034453083 -0.034955993 0.020075744 -0.027138168 -0.00335617 0.058474142 0.032823097 -0.07034166
00000000: b3fd 6abd 699a d1bb 8e45 cd3c 57ab 1ebb
00000010: 0147 4c3c a00d 8a3c a648 b53c 8ce8 393c
00000020: 34ed 07bd 512a f03c 2a9c 6ebd f7fe 02bd
00000030: a487 0b3c e040 553d 2672 823d 42b1 a6bc
00000040: 269f 373c 0a42 63bd 3f81 b8bc 80aa 7e3c
00000050: b480 513d d7ee 863d 2156 babc 219c 1bbd
00000060: de1c b43d da49 113a cb09 4bbd 3d17 803d
00000070: a18d 293c e6a2 3bbd 29b1 dabc b11a 3a3b
00000080: aa40 4a3c 195f d9bb b231 f9bc 2006 17bd
00000090: df76 6bbd b07c 8f3d 1d43 55bd 3de0 1e3d
000000a0: f4c9 1c3d 51cb 64bd c828 d9bc 22c9 5f3d
000000b0: 1612 313d 93da c73c f1aa c53c 2532 293d
000000c0: e28d 40bc 9108 c73c adac 173c 2662 df3c
000000d0: baa9 673d b883 9b3b beb1 843b 0dab 0cbd
000000e0: b477 033d 9085 fbbc 4f9a 47bc 428d 803b
000000f0: 1cff 3a3c 03ed 573d efce b33c 1f83 9ebc
00000100: 2f16 94bc e266 81bd ddbf 23bd f74d f23c
00000110: b1f9 a63d 39d8 59bd 062a 793d a96f db3c
00000120: 4675 3ebd 6d9a b3bc 392f 443d dbb1 6a3d
00000130: 3820 f73c 8153 31bc d792 fb3b 3c48 86bd
00000140: cf44 bebb b4dd 0d3d 69a6 d73c a262 f0bc
00000150: 4079 073d 35bd 52bd ccae 8dbd 7684 2b3d
00000160: abf5 be3c dd63 fdbc 2b0e 29bd d82d 0fbd
00000170: 671b 23bc 9bf7 82bc 3920 2bbd 3288 98bc
00000180: 13d3 263d c34a 46bd f65a 623b 93c9 07bd
00000190: 68ca 8c3d 957d 7f3c 276f edbb b8f9 a0bc
000001a0: deb6 72bd 8ef7 5abd 6375 783d be8d 64bc
000001b0: eb95 ce3c 1f99 e6bc 987e 2537 c691 d93c
000001c0: ad1e 0dbd 042e 0fbd e375 a43c dd50 debc
000001d0: 30f3 5bbb 9582 6f3d 8371 063d 4a0f 90bd

weight f4 [84, 120]
-0.04573291 0.07314496 -0.060688578 0.061428387 0.039478816 -0.07893938 0.026529057 0.018759934
-0.011278014 -0.03127659 0.043503832 0.00078108575 -0.02103462 0.052014098 0.06669244 -0.04702692
-0.09014344 0.07936588 0.029934077 0.02827614 -0.067234 0.036448702 -0.038125746 0.03911562
-0.023452593 0.03744481 -0.03508957 0.018622596 0.08723338 -0.039947275 0.03761945 -0.04107469
0.039805055 -0.089269646 -0.026812715 -0.03068824 0.05899423 0.045106735 0.0077193268 0.023095671
0.058058027 -0.015731035 0.06580368 -0.040287293 -0.023858067 -0.08330549 -0.043225843 -0.03197944
-0.06257249 -0.08991259 0.020841777 -0.078639574 -0.07378457 0.0072677233 -0.088593744 0.01783088
-0.045335654 0.048953027 -0.050450616 -0.057583872 -0.07127671 -0.09651934 0.013194168 -0.040178623
-0.037800178 0.045713976 -0.00837589 0.04040393 -0.07339585 -0.04934615 0.072359495 -0.05148509
-0.05744959 0.037663873 -0.012451313 0.0021538213 0.012111117 -0.024459098 0.017786317 0.027321724
-0.003263277 0.08121307 0.050346166 -0.06971255 -0.06895988 0.052547246 0.0047332994 -0.03889346
-0.054373596 -0.00039338315 -0.023770051 0.08796533 -0.042216774 0.060619008 0.08177823 0.0329901
0.040540725 0.084578834 -0.053073056 -0.023088345 0.020434104 -0.02017564 -0.037994225 -0.08545536
0.07818081 -0.024092779 -0.020574758 -0.022918282 -0.06371494 0.06690738 -0.035183117 0.084523514
0.077584974 -0.065302394 -0.09012025 -0.03826764 -0.04488541 0.048009116 -0.070904545 -0.08459961
0.06243396 0.09824601 -0.025751704 0.05073559 0.10093291 0.07610772 0.047792293 0.029793775
0.0016460629 0.30919552 0.064707115 -0.02389234 -0.05509007 0.03261796 -0.064955235 -0.063956
-0.0116010215 0.0076902434 -0.044272814 0.07443824 -0.022953875 -0.0800851 0.19401807 -0.029517282
-0.06973926 0.032110184 -0.09788596 0.04995438 0.16345243 0.06493166 0.033830114 0.057245962
-0.06723368 -0.014871017 -0.04938637 -0.021462426 0.09558697 0.028237011 0.07302047 0.006892044
-0.011512394 -0.025498467 -0.122347936 -0.032818843 0.3202174 0.014470992 -0.049965125 -0.058364186
-0.11050318 0.0062090037 0.0063579003 -0.07613013 -0.13116209 0.007321306 -0.020904196 0.08503406
0.053676486 -0.042256936 0.11751591 0.07986186 0.051809352 0.06256117 -0.043450702 0.06680661
-0.0023900245 -0.015756592 0.07341037 0.035791323 -0.067643926 0.07862818 0.019406078 -0.055448405
0.10315293 0.08576991 -0.053077426 -0.061705645 -0.06070331 0.026341774 0.020257084 0.105719574
-0.010824376 0.088474356 0.109142154 0.25370675 0.061862703 -0.05023045 0.17977993 0.025999362
0.19960602 0.015388341 0.24036387 -0.08692692 0.0103417495 0.08738022 -0.054962676 0.06426199
0.08734395 -0.0051875017 0.048269033 0.07299233 -0.108917385 -0.00936959 0.027836278 -0.05352762
0.07211252 -0.08011931 -0.023487184 0.04193154 -0.15018809 0.110383086 0.00933217 -0.043185923
-0.055194795 0.028418817 -0.09430488 0.2713048 -0.06981378 -0.17144592 -0.0012536031 0.03253403
0.065644436 0.024008447 -0.06229923 0.056362428 0.038735665 0.058173753 0.0174448 0.031233177
-0.002847128 0.04945228 0.033008557 -0.019131508 -0.035434082 0.017220007 0.049003158 0.06613153
00000000: 6f52 3bbd 06cd 953d 9694 78bd 559c 7b3d
00000010: 8ab4 213d f8aa a1bd 7753 d93c 6fae 993c
00000020: 6bc7 38bc e21b 00bd 1331 323d c7c1 4c3a
00000030: cc50 acbc bc0c 553d 0c96 883d 4d9f 40bd
00000040: 209d b8bd 948a a23d 4f38 f53c 5da3 e73c
00000050: fbb1 89bd 3c4b 153d be29 1cbd b337 203d
00000060: a71f c0bc bb5f 193d 15ba 0fbd 6a8e 983c
00000070: 6aa7 b23d c19f 23bd da16 1a3d ef3d 28bd
00000080: a00a 233d 01d3 b6bd 57a6 dbbc e765 fbbc
00000090: efa3 713d d7c1 383d 68f2 fc3b 2233 bd3c
000000a0: 41ce 6d3d 5fde 80bc 14c4 863d 4a04 25bd
000000b0: fe71 c3bc 129c aabd 950d 31bd e0fc 02bd
000000c0: 0126 80bd 1824 b8bd 60bc aa3c c90d a1bd
000000d0: 5d1c 97bd 1526 ee3b a370 b5bd 1112 923c
000000e0: e1b1 39bd f882 483d 4ea5 4ebd 11dd 6bbd
000000f0: 86f9 91bd efab c5bd 5a2c 583c 5792 24bd
00000100: 5cd4 1abd 943e 3b3d 073b 09bc 977e 253d
00000110: 9050 96bd 301f 4abd 3731 943d 08e2 52bd
00000120: 4350 6bbd 6f45 1a3d 9800 4cbc 2027 0d3b
00000130: b56d 463c 725e c8bc 9cb4 913c cfd1 df3c
00000140: b4dc 55bb 0a53 a63d c837 4e3d 74c5 8ebd
00000150: d63a 8dbd c83b 573d cb19 9b3b c04e 1fbd
00000160: d9b6 5ebd fe3e ceb9 69b9 c2bc 2b27 b43d
00000170: 7feb 2cbd a34b 783d 587b a73d a120 073d
00000180: 080e 263d ab37 ad3d 2263 59bd c523 bdbc
00000190: 6c65 a73c 6247 a5bc d59f 1bbd 3803 afbd
000001a0: 431d a03d 385e c5bc 658c a8bc 1fbf bbbc
000001b0: fa7c 82bd bd06 893d 2c1c 10bd aa1a ad3d
000001c0: dfe4 9e3d 43bd 85bd f790 b8bd 87be 1cbd
000001d0: c4d9 37bd 35a5 443d 6736 91bd 8f42 adbd
000001e0: c1ba 7f3d 3435 c93d 3df5 d2bc 1fd0 4f3d
000001f0: eab5 ce3d 5dde 9b3d dac1 433d 1312 f43c
00000200: b5c0 d73a e04e 9e3e 2a85 843d deb9 c3bc
00000210: 20a6 61bd 699a 053d 4007 85bd 5dfb 82bd
00000220: 3612 3ebc 70fe fb3b 6957 35bd 1373 983d
00000230: c409 bcbc a803 a4bd acac 463e 3ace f1bc
00000240: 75d3 8ebd f885 033d 6f78 c8bd f79c 4c3d
00000250: 1360 273e e4fa 843d 7291 0a3d be7a 6a3d
00000260: d0b1 89bd 91a5 73bc 5d49 4abd f8d1 afbc
00000270: 1ac3 c33d 4e51 e73c c28b 953d a8d6 e13b
00000280: 7b9e 3cbc 29e2 d0bc 8e91 fabd 0d6d 06bd
00000290: 89f3 a33e bd17 6d3c 3ba8 4cbd 490f 6fbd
000002a0: 7e4f e2bd e674 cb3b ef55 d03b 1dea 9bbd
000002b0: 5b4f 06be 91e7 ef3b 473f abbc 5626 ae3d
000002c0: e0db 5b3d 9c15 2dbd 2eac f03d 9d8e a33d
000002d0: 0b36 543d 1220 803d 5df9 31bd e7d1 883d
000002e0: f5a1 1cbb f813 81bc 2d58 963d ec99 123d
000002f0: e688 8abd d007 a13d 7ff9 9e3c de1d 63bd
00000300: d841 d33d 22a8 af3d b767 59bd 0fbf 7cbd
00000310: 09a4 78bd b4ca d73c 2ff2 a53c 8183 d83d
00000320: b958 31bc 0b32 b53d ec85 df3d dae5 813e
00000330: bf63 7d3d 72be 4dbd 3b18 383e 9dfc d43c
00000340: 8565 4c3e 611f 7c3c f221 763e be06 b2bd
00000350: 7170 293c 67f4 b23d 8b20 61bd ca9b 833d
00000360: 63e1 b23d ebfb a9bb c0b5 453d 017d 953d
00000370: 1410 dfbd e982 19bc e808 e43c c73f 5bbd
00000380: bbaf 933d 9815 a4bd 3268 c0bc 68c0 2b3d
00000390: e8ca 19be 8710 e23d f5e5 183c b9e3 30bd
000003a0: f013 62bd 94ce e83c eb22 c1bd 76e8 8a3e
000003b0: 87fa 8ebd 858f 2fbe f14f a4ba 6742 053d
000003c0: 9770 863d 5dad c43c 7a2d 7fbd 4adc 663d
000003d0: 4aa9 1e3d 9a47 6e3d 66e8 8e3c b8dc ff3c
000003e0: e296 3abb 798e 4a3d fb33 073d aeb9 9cbc
000003f0: 5423 11bd f910 8d3c 89b7 483d f86f 873d

bias f4 [84]
-0.033232678 -0.06596106 -0.07532897 -0.03488143 0.07938966 0.04969477 -0.06479763 0.036364872
-0.059564453 0.05123601 0.015779689 -0.0959543 0.11793417 0.039848935 0.08101461 -0.058673
0.07195222 0.10265907 0.10732486 -0.053941462 -0.05180888 -0.0023768044 -0.08076205 0.11238427
-0.052004375 -0.07000293 0.0461737 -0.059972078 0.07878385 -0.02352225 0.0034954422 0.1064111
0.05637553 -0.012705389 0.008843311 0.04007921 -0.020038132 0.095561616 -0.022755576 0.011026215
0.030471137 -0.008897817 0.06572622 0.0212131 -0.06347962 0.005171128 0.10765105 0.06462935
-0.008450559 0.0505027 -0.015236437 -0.005536136 0.06902054 0.043570213 -0.0812693 -0.05551995
0.001145421 -0.043413207 0.07813434 0.10854984 -0.02149936 0.07290871 0.110418156 0.01080949
-0.037528053 -0.015622639 -0.062145963 -0.03225918 0.058644976 0.11225673 0.02866723 -0.045535453
0.042505108 -0.08331407 0.028219765 0.1049263 -0.09632387 0.09639191 -0.07532222 0.082405254
0.042513218 -0.07531252 -0.06646413 -0.06185522
00000000: fd1e 08bd 9816 87bd 1346 9abd d5df 0ebd
00000010: 0c97 a23d be8c 4b3d 9fb4 84bd 55f3 143d
00000020: dbf9 73bd dadc 513d 6844 813c b083 c4bd
00000030: 7887 f13d a338 233d fdea a53d 1a53 70bd
00000040: af5b 933d eb3e d23d 23cd db3d b9f1 5cbd
00000050: 8c35 54bd 29c4 1bbb 9366 a5bd b929 e63d
00000060: 8a02 55bd b25d 8fbd a220 3d3d 48a5 75bd
00000070: 6d59 a13d bcb1 c0bc ca13 653b 10ee d93d
00000080: 07ea 663d 442a 50bc 89e3 103c 192a 243d
00000090: 0227 a4bc cfb5 c33d e769 babc 4ca7 343c
000000a0: 9b9e f93c 26c8 11bc 789b 863d 18c7 ad3c
000000b0: 9a01 82bd 9172 a93b 2778 dc3d 655c 843d
000000c0: 3774 0abc ebdb 4e3d 40a2 79bc 7a68 b5bb
000000d0: a45a 8d3d ae76 323d 8570 a6bd e368 63bd
000000e0: f321 963a 0cd2 31bd e604 a03d 614f de3d
000000f0: 6d1f b0bc 2951 953d ea22 e23d 4a1a 313c
00000100: 04b7 19bd 19f6 7fbc c48c 7ebd 3422 04bd
00000110: b735 703d dbe6 e53d 8ad7 ea3c 6283 3abd
00000120: d619 2e3d 91a0 aabd 232d e73c 9ae3 d63d
00000130: 7345 c5bd 1f69 c53d 8942 9abd 16c4 a83d
00000140: 5722 2e3d 733d 9abd 591e 88bd e65b 7dbd

weight f4 [3, 84]
-0.05022205 0.12619843 0.021760287 0.0875668 -0.068488844 0.120495565 -0.037252855 0.13692462
0.04800834 0.05187248 -0.1843445 0.023762029 -0.08812179 0.079056926 -0.16052051 0.026050981
0.1525384 0.07666362 -0.16954578 0.055859786 -0.022475068 -0.03003616 0.013768478 -0.22155474
0.048736773 0.09058979 0.10142624 0.20531754 -0.18145496 0.06656759 0.1497018 -0.19909692
-0.17196979 0.0964304 -0.16820623 0.14942335 -0.007730168 -0.026187692 0.092139676 -0.13146712
0.11305614 0.050080866 0.15703328 0.011474186 -0.015136868 -0.18178292 -0.060085904 0.14440824
0.14974512 -0.10984747 -0.11206742 -0.10072481 -0.1511558 -0.20971859 0.09611933 0.17066085
-0.25391522 0.06984439 -0.10925936 -0.22835733 0.19341204 0.016437445 -0.108455434 -0.23000193
0.12057107 0.06499076 -0.08554109 0.04846953 -0.029495724 -0.114438735 -0.08662013 -0.044048343
0.11697372 0.012088905 0.06908043 -0.09720162 -0.07504377 -0.2183102 0.062167216 -0.09162716
-0.07249311 0.012418967 -0.09320419 -0.0144955665 -0.039754868 0.1143414 0.035548616 0.15718475
-0.18350689 -0.14239866 -0.10844619 -0.19026485 -0.08778444 -0.16058894 0.1779339 -0.04079218
-0.0692415 0.055771247 0.2403886 -0.18077712 0.1107557 -0.1872007 0.06075406 0.00041897505
-0.016574314 0.0042784484 0.03404279 0.0074985796 -0.07966792 0.04217548 0.085453436 -0.027028643
0.25801376 -0.028659713 -0.102996 0.22075126 -0.14716232 0.15812944 0.17854452 -0.101476066
0.011348625 -0.18810304 -0.10298691 0.17156328 0.17220801 -0.07854962 -0.09707156 -0.14201607
-0.21098126 0.21050532 -0.22315408 -0.17585039 0.14107448 0.19807048 0.22532743 0.03028011
0.09158185 0.16147101 -0.095810145 0.034534927 0.1341949 -0.09419093 0.042732082 -0.04303781
-0.07614673 -0.17434287 0.12159899 -0.3265211 0.033399906 -0.09764928 0.010212328 0.0058576777
-0.121206984 0.16704562 -0.21111977 0.1679551 -0.1142596 0.10777211 -0.13801585 -0.017657056
0.090819895 0.059417542 0.17295451 -0.15853651 -0.13893078 0.09193551 0.08875395 -0.16919518
0.009881592 -0.19112149 0.07492287 -0.2604773 0.122107565 0.17250736 -0.1020868 0.07693323
0.036345627 -0.00073203555 -0.037344404 -0.015829664 0.2260574 -0.21441653 -0.14027373 -0.005176648
-0.15308465 0.12171795 0.0044228975 -0.09547717 0.013054874 -0.07755624 -0.032130126 0.073151134
-0.017347079 0.06589338 -0.2005827 -0.13515265 -0.17496324 -0.08544257 -0.019362455 -0.11048265
0.109127976 -0.19449063 -0.11167593 -0.05161572 0.051012464 0.14570299 0.04481254 -0.10813747
-0.1905511 -0.03624286 -0.03202435 0.099230394 -0.021227693 -0.0718184 0.061716143 -0.06869734
-0.17638409 0.02668104 -0.10037444 -0.09249975 0.10313414 0.111665115 0.010850311 -0.09621371
-0.16317095 -0.1280668 0.14957193 0.22838096 -0.18819241 0.0731514 -0.06526727 0.28530306
0.052747168 0.039744366 0.027010454 -0.03506779 0.13664609 0.032643776 0.087795414 -0.32737184
-0.017013894 -0.2081405 -0.14835165 0.24710023 0.0049898806 0.21746324 -0.1675145 0.22508945
0.21220452 -0.025493026 -0.022550019 0.13263607
00000000: a3b5 4dbd 293a 013e a142 b23c 3956 b33d
00000010: e143 8cbd 61c6 f63d 7396 18bd f835 0c3e
00000020: 65a4 443d 3d78 543d cec4 3cbe 96a8 c23c
00000030: 3279 b4bd 99e8 a13d 7d5f 24be de68 d53c
00000040: 0733 1c3e d101 9d3d 699d 2dbe 3bcd 643d
00000050: a21d b8bc 650e f6bc 2f95 613c 3fdf 62be
00000060: 36a0 473d 2487 b93d 8fb8 cf3d c33e 523e
00000070: 54cf 39be 9754 883d 6e4b 193e 10e0 4bbe
00000080: d918 30be 4d7d c53d 413e 2cbe 6f02 193e
00000090: 594d fdbb 9287 d6bc bab3 bc3d 519f 06be
000000a0: fa89 e73d 9821 4d3d 55cd 203e 39fe 3b3c
000000b0: a000 78bc 4d25 3abe a31c 76bd c1df 133e
000000c0: c956 193e b6f7 e0bd 9a83 e5bd cf48 cebd
000000d0: 96c8 1abe 78c0 56be 36da c43d b8c1 2e3e
000000e0: 2d01 82be 930a 8f3d 5fc3 dfbd 81d6 69be
000000f0: ce0d 463e d2a7 863c e21d debd a085 6bbe
00000100: f7ed f63d e019 853d 2b30 afbd fc87 463d
00000110: 04a1 f1bc db5e eabd e565 b1bd 096c 34bd
00000120: eb8f ef3d 8b10 463c 0a7a 8d3d a511 c7bd
00000130: 8cb0 99bd b68c 5fbe 0da3 7e3d 05a7 bbbd
00000140: 4577 94bd ec78 4b3c d7e1 bebd d07e 6dbc
00000150: 00d6 22bd d32b ea3d 6d9b 113d 0af5 203e
00000160: 3be9 3bbe f4d0 11be 0919 debd cad4 42be
00000170: 54c8 b3bd 6d71 24be 4e34 363e b315 27bd
00000180: 7dce 8dbd 6470 643d 6e28 763e a31d 39be
00000190: e2d3 e23d 8ab1 3fbe 40d9 783d e1a9 db39
000001a0: dbc6 87bc 3a32 8c3b 7470 0b3d a5b6 f53b
000001b0: ef28 a3bd 32c0 2c3d 3602 af3d 2c6b ddbc
000001c0: 611a 843e c6c7 eabc 91ef d2bd 9e0c 623e
000001d0: b8b1 16be afec 213e 60d4 363e afd2 cfbd
000001e0: 95ef 393c 159e 40be cdea d2bd 49ae 2f3e
000001f0: 4c57 303e a0de a0bd 74cd c6bd a96c 11be
00000200: 790b 58be b58e 573e 8182 64be 2012 34be
00000210: d475 103e fdd2 4a3e 3cbc 663e fe0d f83c
00000220: 448f bb3d a858 253e 1c38 c4bd 7f74 0d3d
00000230: 636a 093e 2de7 c0bd d607 2f3d 6a48 30bd
00000240: d1f2 9bbd f086 32be e408 f93d c62d a7be
00000250: 57ce 083d 59fc c7bd 9c51 273c c3f1 bf3b
00000260: 5e3b f8bd 020e 2b3e c82f 58be 6cfc 2b3e
00000270: f000 eabd a0b7 dc3d 0754 0dbe 88a5 90bc
00000280: c8ff b93d cf5f 733d fd1a 313e 6557 22be
00000290: df43 0ebe af48 bc3d a2c4 b53d 8041 2dbe
000002a0: 67e6 213c 5ab5 43be 2971 993d 485d 85be
000002b0: 8813 fa3d c5a5 303e e212 d1bd 2b8f 9d3d
000002c0: 27df 143d 13e6 3fba 72f6 18bd 36ad 81bc
000002d0: 977b 673e 0290 5bbe eba3 0fbe dfa0 a9bb
000002e0: 39c2 1cbe 4347 f93d f4ed 903b 8989 c3bd
000002f0: 1ce4 553c ced5 9ebd e19a 03bd 43d0 953d
00000300: 761b 8ebc 1cf3 863d 8d65 4dbe 7565 0abe
00000310: 9029 33be 84fc aebd 039e 9ebc ba44 e2bd
00000320: 7d7e df3d 8d28 47be 5ab6 e4bd 016b 53bd
00000330: 72f2 503d 2a33 153e 5b8d 373d 2e77 ddbd
00000340: d41f 43be 6573 14bd f72b 03bd 4e39 cb3d
00000350: b3e5 adbc 8615 93bd 11ca 7c3d 31b1 8cbd
00000360: 089e 34be 3292 da3c 1d91 cdbd 8270 bdbd
00000370: fe37 d33d aeb0 e43d 81c5 313c b20b c5bd
00000380: 4916 27be f123 03be 6229 193e b3dc 693e
00000390: 83b5 40be 67d0 953d d9aa 85bd 3e13 923e
000003a0: 6a0d 583d fdca 223d 0745 dd3c 3ea3 0fbd
000003b0: f4ec 0b3e 7bb5 053d 15ce b33d 489d a7be
000003c0: b960 8bbc c922 55be 7fe9 17be d807 7d3e
000003d0: 2782 a33b afae 5e3e ec88 2bbe d97d 663e
000003e0: 244c 593e c0d6 d0bc d1ba b8bc c0d1 073e

bias f4 [3]
-0.10288198 -0.016270803 -0.053184874
00000000: cab3 d2bd 594a 85bc 62d8 59bd
